Database/AE_model.pkl (torch_old, 2682 bytes, 8 tensors)

encoder.0.weight f4 [8, 16]
00000000: 2aca 5fbf 3702 afbe 9011 05bf 351c 993e
00000010: d4e0 103f 4bd4 0d3f 27c9 7f3e 2825 8bbe
00000020: 275a 723d 76e6 2b3f bf1f 8d3d 723e d6be
00000030: 2ac6 2fbf b82e 5d3f 6878 9b3e 15db 083f
00000040: d4a5 02be 9e42 4cbe e873 1bbe ae3a 66be
00000050: 48b9 54bd cac5 053e dc9b b6bd c409 24be
00000060: 887d dbbd a8cf 6ebd 90ad b7bc a270 60be
00000070: f473 eb3d bc0e babd d297 013e a018 e1bd
00000080: 2b2f 583e b2d4 ad3e 9afc fe3d 894b e73e
00000090: bfa4 113d 0363 163e f859 44bd 5411 5c3d
000000a0: a413 d13e 84ee 653e 6e4c 7c3e e3e0 06bd
000000b0: 194f 1d3e 4bd3 d73e b38d 913e 2189 8a3e
000000c0: f93d 14be fa18 11be e442 3cbe 8a27 6fbc
000000d0: d5a7 463e 12f3 803d a9f9 a03c fbaa 51be
000000e0: 3d18 a03d cf34 3ebe e749 18bd 7fbb e5bc
000000f0: afd1 bfbd ac29 09be 2d4a 0fbd ea1b 6f3e
00000100: d0d4 e4be a197 75bd b908 04bf 9f44 8c3e
00000110: 8611 c73e 60f6 133f dac1 c93e ced6 133e
00000120: 2399 dc3e 72d5 f03e 4d8e 1e3e 7529 0b3e
00000130: eb05 80be afb6 e53e 1a01 013e ee2d 953e
00000140: 58f1 a13d 1c17 d3bd 24a9 90bd 4404 f63d
00000150: 0e6f 72be 6ecd 34be b282 603e 6ab2 24be
00000160: b4be 883d bc86 77be 8042 c9bb 40cb c53c
00000170: a6a6 5bbe b814 803d d807 77bd 7a1e 2dbe
00000180: 6462 f13e 8d1e 283e 7f71 2d3e 1661 523e
00000190: c2b2 9fbd 310f f7bd 199e a63e ecc0 e03e
000001a0: 6888 aeb6 08d9 61bc d072 843c 368e 8d3e
000001b0: 2824 ea3e 8a25 e2bc 9f79 ae3e 53b5 723e
000001c0: 6994 04be 6c70 283e 4bf1 06bf 55af 6cbe
000001d0: 91d1 efbd 3102 373e d863 033d 37b2 d83d
000001e0: 2678 91bc 2377 373e 215e ce3c c969 66be
000001f0: 456d 59be e49c 813e 015c 423e ce75 ef3b
-0.8741785 -0.34181377 -0.51979923 0.29904333 0.5659306 0.5540206 0.24979077 -0.27176785
0.059168007 0.6714853 0.06890821 -0.41844517 -0.6866175 0.8639941 0.303653 0.5345929
-0.12758571 -0.19947287 -0.15180933 -0.22483322 -0.05193451 0.13063732 -0.089164466 -0.1601935
-0.107173026 -0.058303505 -0.022421628 -0.21917966 0.11496726 -0.090848416 0.12655571 -0.10991025
0.21111743 0.33951336 0.12450524 0.45174816 0.035557505 0.14686207 -0.047937363 0.053727463
0.40835297 0.22454268 0.2463853 -0.032929312 0.15362205 0.4215339 0.2842842 0.27057746
-0.14476766 -0.14169684 -0.18384892 -0.014596829 0.1939996 0.06296362 0.019650297 -0.2047538
0.07817123 -0.18574832 -0.037179854 -0.028043507 -0.09366166 -0.13394803 -0.03498285 0.23350492
-0.44693613 -0.059959058 -0.5157581 0.27396104 0.38880557 0.57797813 0.3940571 0.1443741
0.43085584 0.47037846 0.15483971 0.13590033 -0.25004515 0.4486594 0.12598076 0.29136604
0.07907361 -0.10307142 -0.07063511 0.12012532 -0.23675177 -0.1765649 0.21924856 -0.16083685
0.06676999 -0.24172491 -0.0061419606 0.024144769 -0.2145029 0.06253952 -0.060310215 -0.16906157
0.4714538 0.16417904 0.16937827 0.20544848 -0.07797767 -0.120634444 0.32542494 0.43897188
-5.201484e-06 -0.013784654 0.016168028 0.2764756 0.4573071 -0.02760579 0.34077165 0.23701982
-0.12947239 0.16449136 -0.52711934 -0.23113759 -0.117098935 0.1787193 0.03207764 0.10580867
-0.017757487 0.17916541 0.025191369 -0.22501291 -0.2123309 0.2531501 0.18980409 0.0073077446

encoder.0.bias f4 [8]
00000000: 9e88 8a3e f863 8dbd 8c35 8fbe f1ba 9cbc
00000010: a920 ffbd d404 7dbe 9bbd 5cbe 7525 003f
0.27057356 -0.06903833 -0.2797054 -0.01913211 -0.12457401 -0.24708873 -0.21556704 0.50057155

encoder.2.weight f4 [2, 8]
00000000: 6f3e d03e fc9b b83d 4395 073f 2e3d 253e
00000010: 105c 123f bce8 d1bd d18f cb3e 07d6 c6be
00000020: a2cb 753f 3e93 263e a951 3ebe a1d5 8d3e
00000030: 4fa3 023f 001d 02bc 578c 3bbf 0693 583f
0.40672633 0.09014127 0.5296213 0.1613662 0.57171726 -0.10249469 0.3975816 -0.38835165
0.96013844 0.16267106 -0.18585838 0.27702048 0.5103044 -0.007941484 -0.73261017 0.8459934

encoder.2.bias f4 [2]
00000000: 6dfa 8ebe 22b8 f73e
-0.27925435 0.4838267

decoder.0.weight f4 [8, 2]
00000000: 08c0 c23d 6943 14bf 5980 1fbf f309 173f
00000010: f38b 873f 0410 c0bd 9407 5a3f 78a7 013f
00000020: 616f 43be 8639 a53f 27bb 163f 058a 593f
00000030: 3891 febd 9228 67be d576 ddbe edd8 713e
0.09509283 -0.5791536 -0.6230522 0.58999556 1.0589584 -0.09378055 0.85167813 0.5064616
-0.19085456 1.290818 0.5887932 0.84976226 -0.12430042 -0.2257407 -0.43254724 0.23617907

decoder.0.bias f4 [8]
00000000: 1595 0abf 5f7c f43e 3887 d33e c0f3 323c
00000010: 0a51 753f 13d0 20bf 4079 d43c 9f1d a23f
-0.5413373 0.47751138 0.413141 0.010922372 0.9582678 -0.62817496 0.025936723 1.266529

decoder.2.weight f4 [16, 8]
00000000: 2821 293d 7a6f 853d f5cb f73e e9b1 9dbd
00000010: 88d8 02bf 46b1 5dbd 037a 13be 70a6 cdbd
00000020: 6014 003e e852 3abf dee6 f03e b297 65be
00000030: 522f ccbe b167 083f 0aab 44be c4ad 8ebe
00000040: e075 4d3d b97c 6ebe ede5 a03e 7dbc 8e3e
00000050: 2a1e 4fbf 4fa6 413e 70d6 acbe b43c ad3d
00000060: 7e0c 99be 5752 94bd 6a3b c23e 1f80 ff3d
00000070: ce6d 39be 52f7 2a3e 8820 19be e621 eabe
00000080: a383 973e 2994 233d 0a90 853e af5e 313e
00000090: 5e5d c0be 260e b73e f6d3 32be fc91 b6be
000000a0: 4630 7ebe a019 4fbd 29c8 53bd e236 433e
000000b0: 3f7e 07be b659 d63e ed75 5cbe 8fa1 30bf
000000c0: f87b 23bd ce2d bfbe c9ac 613e a37d 373d
000000d0: da8a adbe 0cfb e63e 5adb 2d3e 0b60 d1be
000000e0: c28b 783e c84a eabe 30ac e93e 1c43 323e
000000f0: 4fe0 0fbf ff3a cd3e 4265 18be 755a 4cbe
00000100: 980c 053d ee3a 1bbe d3c6 d53e c124 50bd
00000110: 44b6 b8bd ae7b 183e 60bf f3bc f6f9 f3be
00000120: 9897 993d 9a42 563e 4a9e e63c d398 913e
00000130: 24aa 58be 6fe3 093f 5bbf 38be bfa5 73bf
00000140: f3a6 b3be e714 6b3c 89c0 b03e 542e 0e3e
00000150: 539a ddbe 2af1 a43e c046 e43d 16ee 20be
00000160: 762a 52be 9e7e dabe c465 f73e 1f14 64be
00000170: e71a fbbe 1ea7 b13e 7275 513e 74fa ccbe
00000180: 323c 063e 8b31 24be 9e40 133f 83c1 fbbc
00000190: f213 cfbe 6437 7dbd a8a6 a3be 1ed3 a1be
000001a0: 6a5a 54be aff7 6ebd 0f22 5abd 75e7 c03d
000001b0: e8a9 5bbe 3cdf 4d3f db84 b43e b024 4dbf
000001c0: d3e6 9cbe cc4b 39bf 44a4 803e 3c8a 48be
000001d0: 56f2 89be b7a2 303f a0de 113d 8701 08bf
000001e0: a69d 3e3e 9b85 6fbe cf68 8e3c 6858 033f
000001f0: fe82 32be 47e9 8f3e 408c 643c 8530 14bf
0.041291386 0.06515403 0.48397794 -0.07699949 -0.5111165 -0.05412414 -0.14402013 -0.10041511
0.12507772 -0.72782755 0.47051138 -0.22421148 -0.39879853 0.5328322 -0.19205871 -0.27866948
0.050161242 -0.23289765 0.3142542 0.2787818 -0.809054 0.18911098 -0.33757353 0.08458844
-0.29892343 -0.072422676 0.37935954 0.12475609 -0.18108293 0.16695908 -0.14953816 -0.45728987
0.29592618 0.03993622 0.26086456 0.17321275 -0.37571234 0.35752982 -0.17463669 -0.35658252
-0.24823102 -0.050561547 -0.05170456 0.19063905 -0.13231753 0.4186532 -0.2152936 -0.6899652
-0.039913148 -0.37339634 0.22038569 0.04479755 -0.33894998 0.4511341 0.16978207 -0.40893587
0.24272063 -0.4576018 0.4563918 0.17408413 -0.5620164 0.40084073 -0.14882377 -0.19956382
0.032482713 -0.15159199 0.41753253 -0.0508163 -0.090191394 0.1489093 -0.02975434 -0.47651643
0.07499617 0.20923844 0.02815165 0.28436908 -0.21158653 0.5386266 -0.18041746 -0.95174783
-0.3508831 0.014348245 0.34521893 0.1388486 -0.43281803 0.32215244 0.11146307 -0.15715823
-0.2052401 -0.42674726 0.4831983 -0.222733 -0.49043962 0.34697813 0.20454958 -0.4003483
0.131089 -0.16034524 0.57520473 -0.030731922 -0.40444905 -0.061820403 -0.31963086 -0.31606382
-0.20737615 -0.05834168 -0.053255137 0.09419147 -0.21451533 0.80418754 0.3525761 -0.80134106
-0.30644855 -0.7238128 0.25125325 -0.19583982 -0.269427 0.68998283 0.035612702 -0.5312733
0.18614826 -0.2339081 0.017383961 0.5130677 -0.17432782 0.28107664 0.013949454 -0.57886535

decoder.2.bias f4 [16]
00000000: 7093 c03e e49c 093e 7c39 b1be 0c0d 42bf
00000010: 641e a3be 9c46 f7bd f90e a6bd e817 9dbe
00000020: f03c bbbe dc27 5fbd 7f18 82bd c4ed dabc
00000030: b46a 83bc 26c2 f6be 722a acbe 1773 65be
0.37612486 0.13438755 -0.3461417 -0.7580116 -0.31859124 -0.120740145 -0.081083246 -0.30682302
-0.3656993 -0.054481372 -0.063523285 -0.026724704 -0.016042091 -0.48194999 -0.33626133 -0.22407185
